prod_model/classifier_weights.bin (torch, 76086 bytes, 6 tensors)

0.weight f4 [50, 312]
00000000: 8368 26bd 9186 363d b610 263d d7e9 0d3d
00000010: 13e5 6ebd 829f f8bc 62c7 07bd 4716 1d3d
00000020: 5e1e 4ebb 4ac9 a2bc a299 10bd 740e 683d
00000030: 860a 07bd 910f 1c3d 4c45 8c3c e093 1c3d
00000040: 1eb7 103d 5e6f 83bc 8d1b 4bbc 924f 993c
00000050: d750 28bc 117a 253d aeda 46bd 7c4c 9abc
00000060: 5cdc 5cbd 019c 9dbc d1bc 303d 9fd2 6f3c
00000070: 58d3 84bc 2f9a d13c cbcb dc3b 7f88 83bb
00000080: e404 413d f63c 71bb 9916 403d d981 6b3d
00000090: 56cb 1dbd 98bc 813a c3cc 9bbb e047 37bd
000000a0: b454 ecbc fab7 5bbb 22fc 143d 5be9 553b
000000b0: 6caa 39bd 3971 4e3d 5bef bcbc 3a73 843d
000000c0: dda6 48bd 0758 d9bc f86b bdbc 5ad4 82bd
000000d0: fb80 1dbc 93b8 853c d5b3 2dbd 99fb 54bd
000000e0: 7a81 2f3d 23af 00bd 5005 223c c398 afbc
000000f0: 02ed c73c 2275 36bd 7ca8 61bd e057 4e3d
00000100: 6382 78bd 4416 373d 1590 22bc 9700 bb3c
00000110: 10aa 333d 1266 e8bc 1fb4 3cbd 959e 1f3d
00000120: cc0b 03bd da87 e7bc acfd 2e3d c4d9 b7bc
00000130: 4039 b5bc 44e5 f53c 10c4 d2bc b209 23bd
00000140: c14a 48bd 76ab 47bb 51bc 07bd 217e cdbc
00000150: 001d f9bc 702c 9d3c 44c0 243d 911c 18bc
00000160: f493 0abd 8165 533d f82b 1ebd 0b38 6d3d
00000170: 2f3b aa3b efab ac39 2fd3 ff3c fff0 f73b
00000180: ef79 0ebd e067 583d deee 303c a69d 3e3d
00000190: 9416 f13c c126 3e3d dc8c d53c 9b70 7fbc
000001a0: 8c69 c4bb fba9 04bd bf26 dbba 5386 01bd
000001b0: 4d10 523d f4c2 313c dbd9 863c 1506 43bc
000001c0: c117 f23c 96fd 323d d5dd 3a3d 7ef5 41bd
000001d0: 4c59 26bd f211 7a3c 43ad 17bc 1b95 643d
000001e0: 26fc dbba bea3 493c 7e87 483d 2318 283c
000001f0: 0fdd 5e3b a6a2 363d b273 84bd 6449 4fbc
00000200: 932e 94bc e7bd 883b cc63 40bd 31ba 0a3c
00000210: 8aa7 b73b 2a80 bd3c 71b0 cb3b a20a edbb
00000220: 6e0d b13c 7259 043c 6189 9bbc 5cfc fc3b
00000230: 8475 133d 7b96 3d3d 109c afbc 96b4 f2bc
00000240: 9ede 3cbd ca29 613d 4bc6 2dbd b760 6e3d
00000250: 9d19 513c 95c0 963c 71bd 913b e84c 4e3b
00000260: af8d a8bc ab07 b13c c435 013d 42cf b13c
00000270: b837 513d 7f52 863d 66d2 90bc 401e 68bb
00000280: 154d 153d 8cee 503d d8cd 3d3d e4d4 543d
00000290: ceb2 043d 5f6b 333d 0598 58bd 4879 40bb
000002a0: ceeb 20bc 7b73 48bd 27c8 523d 00c2 b43c
000002b0: 54ef c93c dd8d 6b3d be3f 3fbc 6101 6f3a
000002c0: a6b0 83bd 6a85 b3bc 5f1f f8bc 50db 82bd
000002d0: 280a 2b3c 2231 98bc 2186 c0bc 48da 3e3d
000002e0: d584 353d 50c7 a1bc 15c2 883c 58a7 04bd
000002f0: 7033 673d f5b6 3ebd 2376 e9bc 62dc 5fbc
00000300: bf7c 2abd 6001 95bb cf89 ddbc 2dbc 67bc
00000310: 4eb4 03bc 21b7 5ebd a837 153b b4db ab3c
00000320: 3d01 dd3b e74e 05bd c3a9 233d 1ecb e3bc
00000330: deb4 d43b 72a8 b63b 5e28 1fbd 2df1 743d
00000340: f003 01bd f789 09bd 1b64 0ebd cbc7 db3c
00000350: 6a73 d0bc eda6 19bd 14ec 59bd b921 c43c
00000360: ab0f c13c e90e 0e3d 5947 82bd c9cd 893c
00000370: 16b0 d8ba ae83 fc3c fb61 3bbd 39b6 12bb
00000380: 3763 8a3c bfd2 afba 948e 0e3d 8d13 ca3c
00000390: 43d8 223d aae2 9cbc 21cf 1ebd 912d 4abd
000003a0: 0215 5d3c e763 093d 259d 413d 5e84 073d
000003b0: 40e4 23bc a28f ca3c 6734 eabc f221 7bbd
000003c0: b901 053d 65be 2abd ecfe 3e3d e55c cdb9
000003d0: ada1 47bd f4ab 913b 5119 e7b9 6acd 33bd
000003e0: 35d1 48bd 821e 07bd eb00 f93c e510 6cbd
000003f0: a4ba 36bc e9e6 e1bc c1cd 2fbd 9622 8e3d
-0.040627014 0.044561926 0.04054328 0.034646835 -0.05832393 -0.030349497 -0.03314913 0.038351323
-0.0031451206 -0.019871373 -0.035302766 0.05665441 -0.03296902 0.038100783 0.017122887 0.038226962
0.035330884 -0.016044315 -0.012396705 0.0187147 -0.01027318 0.040399615 -0.048548393 -0.018835299
-0.05392109 -0.019239428 0.04314882 0.014637618 -0.016214058 0.025586216 0.006738161 -0.0040140743
0.047123805 -0.0036810017 0.04689655 0.05749688 -0.038523994 0.0009898124 -0.004754634 -0.04474628
-0.028848983 -0.0033526407 0.036373265 0.0032640311 -0.045328543 0.050400946 -0.023063352 0.0646729
-0.04898726 -0.026531233 -0.023122773 -0.06388159 -0.009613271 0.016323363 -0.04240783 -0.051997755
0.042848088 -0.031417023 0.009888962 -0.021435147 0.024405006 -0.0445453 -0.05509232 0.050376773
-0.06067122 0.04469897 -0.009922047 0.02282743 0.043863356 -0.028368983 -0.046070214 0.038969595
-0.031993672 -0.028263021 0.04272239 -0.022442706 -0.022122025 0.030016549 -0.025728256 -0.039804168
-0.048899416 -0.003046719 -0.033138577 -0.025084557 -0.030409336 0.019186229 0.04022242 -0.0092841545
-0.033832505 0.051610474 -0.03861615 0.057914775 0.0051950435 0.00032934497 0.03122863 0.007566571
-0.034784254 0.052833438 0.010799138 0.046537064 0.029429711 0.046423677 0.026068144 -0.015590812
-0.0059940275 -0.03238867 -0.0016719921 -0.031622242 0.051285077 0.010849703 0.016461303 -0.011903306
0.029552342 0.04369887 0.04562171 -0.04735326 -0.040612504 0.015263068 -0.009257617 0.05580626
-0.001678352 0.012307106 0.04895734 0.010259661 0.0034006273 0.044588707 -0.0646738 -0.012651775
-0.018088615 0.0041730287 -0.046970174 0.008467243 0.005604689 0.023132402 0.006216102 -0.0072339335
0.02161285 0.008077966 -0.018986406 0.0077205133 0.036000744 0.046286087 -0.021436721 -0.029627126
-0.04611074 0.054971494 -0.042425435 0.058197703 0.012762454 0.018402377 0.004447632 0.0031478945
-0.020575373 0.021610102 0.031545416 0.021705274 0.05107853 0.06558704 -0.01767845 -0.003541842
0.036450464 0.051008746 0.046338886 0.05196084 0.032397084 0.04380357 -0.052879352 -0.0029369164
-0.009821845 -0.048938256 0.05146041 0.022065163 0.024650253 0.05750834 -0.011672912 0.0009117332
-0.064301774 -0.021914203 -0.030288396 -0.06389487 0.010439433 -0.018578116 -0.023501458 0.046594888
0.04431613 -0.01974836 0.016694108 -0.032386154 0.05644554 -0.0465612 -0.028498715 -0.013663383
-0.041622873 -0.004547283 -0.027043251 -0.014143986 -0.008038593 -0.054373864 0.002276877 0.020978786
0.0067445324 -0.03254595 0.03995682 -0.027806815 0.0064912876 0.0055742795 -0.038856857 0.059800316
-0.031497896 -0.03357884 -0.034763437 0.026828667 -0.025445659 -0.03751271 -0.053203657 0.023941861
0.023567041 0.03468219 -0.06361265 0.016821759 -0.001653197 0.030824509 -0.04574774 -0.0022386445
0.016893012 -0.0013414248 0.03480394 0.024667526 0.039757024 -0.01915105 -0.038771752 -0.04935986
0.013493778 0.03354254 0.047269005 0.03308522 -0.0100031495 0.024726693 -0.02858944 -0.06131167
0.032472346 -0.04168548 0.04662983 -0.0003916986 -0.04873817 0.0044455472 -0.00044078616 -0.04389707
-0.04902764 -0.03298808 0.030395946 -0.0576333 -0.011152897 -0.027575927 -0.04292083 0.069401905

0.bias f4 [50]
00000000: 0b61 05bd 1466 c23c 7c90 c73c 86bd 98bc
00000010: 4a2f 493d d5ca 8a3d aac9 8a3d bd4c babc
00000020: 01c6 fc3c 1e81 b7bc 6847 6b3d 5858 653d
00000030: 5793 fc3c 88d8 3ebc f99e a6bc 7552 ffbc
00000040: ee8e 40bb 38b9 b63c 8d6d 9cbc cdf6 debc
00000050: ae9a d3bc 0636 533d 6ff8 2bbd 5d41 3cbd
00000060: ee73 013d 2bed cdbc 7aab 0ebd 7043 d73b
00000070: e8c3 663d a12c 473d 0dfe 2e3c a5db 0b3d
00000080: 42d7 12bd 4bef 663c 24ef 163d f0a4 363d
00000090: 7f11 34bb 967e cb3a 779c c23c ae5b aabc
000000a0: c4dc 20bd 291b 043d 4321 243d 01c8 ed3a
000000b0: 9516 673d e4ae 8ebb 2bd0 e23c 97fb 973c
000000c0: ac0f 723d e410 98bb
-0.03256325 0.023730315 0.024360888 -0.01864506 0.049117364 0.067769684 0.067767456 -0.02274167
0.030856134 -0.022400435 0.057441145 0.055992454 0.030831976 -0.011648305 -0.020339476 -0.031167248
-0.0029382068 0.022305116 -0.019095207 -0.027217293 -0.025830593 0.051565193 -0.04198497 -0.045960773
0.0316047 -0.025137505 -0.0348315 0.0065693185 0.056339175 0.048626546 0.010680688 0.034145016
-0.035849817 0.014095138 0.036849156 0.04459089 -0.0027476249 0.0015525396 0.023756249 -0.02079567
-0.03927304 0.032252464 0.040070783 0.0018141271 0.05641802 -0.0043543447 0.027687153 0.018552585
0.059096977 -0.0046406854

2.weight f4 [50, 50]
00000000: 615f ec3d d4c8 0dbe 9f21 cfbd 59f1 99bd
00000010: 1ecc fc3d d8d2 7abc 1062 723d 5d2d e0bd
00000020: 6b54 9bbd 01e7 bb3d da9b 97bc 7a90 d5bd
00000030: 78c5 a33c 7940 3ebd 9223 dbbd 23e5 783c
00000040: c290 13bd c2de d83d 3442 af3d 078a 0e3c
00000050: 88f0 5a3d 5c56 383d 10d1 abbd 72c4 fabd
00000060: 9c95 5e3d 0093 17bd c020 d8bc f6b2 513d
00000070: cc8e 83bd c556 a1bc 8541 2e3d 5f39 cd3d
00000080: a459 8ebd 9f61 553d e1fc 033e 9e02 6bbd
00000090: 8131 0a3d e069 b9bd 9e7a c33c d5f4 7abc
000000a0: 510b eabd 046a 37bd d896 793c 1320 e1bc
000000b0: 6a55 1bbd c548 e3bc 5fe0 673c 053b 8f3c
000000c0: 91f8 dcbd fa6d 1d3d 04c0 543d 395e 063e
000000d0: 04c5 993d a1ab 9fbd cf8d fc3c 9513 93bd
000000e0: 004e 6bbd f7f6 ac3a 823f ed3d 5dee 9bbd
000000f0: 66e1 83bc 8070 6abd 916c 553d f4fe f2bd
00000100: 8064 0b3e e49f 563d 4385 cfbd fd5e b9bd
00000110: 2dce b3bd 3e5a 823d 0f21 f5bd 54d2 063e
00000120: 9228 b8bc 81c7 103e 6e78 cc3d 48f1 1c3d
00000130: 2c74 99bc b667 c3bd fb97 abbd c5bd f13c
00000140: 78af 1ebc 6a41 023e aa54 2d3c 7466 943d
00000150: 93d6 37bc c38b bcbb bef6 cd3d 9472 00be
00000160: 5e2d 3b3c 1158 48bd d860 bcbd 8673 6b3d
00000170: bd20 5a3d 1710 463c fc1f ab3d 0dfe d8bd
00000180: 4916 c9bd 0776 363b 3b28 0a3e e5c1 763d
00000190: dd5a b5bd 3703 e8bd fe9c 243d eea5 cd3d
000001a0: fe44 4dbc 78ce 99bd a041 643d f691 0c3e
000001b0: 843c eb3d 1641 1c3c c727 e03c d44d f83d
000001c0: 7c02 82bd 6fa9 103d 1be8 253d 9d3c 1cbd
000001d0: dcc6 73bd 4c8d 8b3d 37f1 8fbd 9339 e8bd
000001e0: 9138 643d d082 b33d 79d7 e43d 8503 e63d
000001f0: 4606 693d 9fbf 223c 3d17 b9bd d3e5 d6bd
00000200: 706c f23d eb59 bb3c 035c 15bd 01d3 0abe
00000210: 50c8 8a3d 2ea7 0abd 76df e9bd 0faa 963d
00000220: 30dc 03be cae2 0abe cae8 1d3b b4fa 78bd
00000230: 077f a1bd 8e53 173e 0936 083e 029b 98bd
00000240: 7b8e 81bd 9dd0 013e 3aa7 edbd 9389 92bd
00000250: c38b 213d 9c19 f83d 5ad7 dd3d 929a 8d3d
00000260: 643d 723d b27e fb3d 2f01 76bd 41e9 bfbd
00000270: ee9c ed3d 37eb 2dbd 654f 223d c724 cbbd
00000280: 05a2 b4bc 3d18 c2bc c9f9 f6bd 2e0c ff3b
00000290: 9f8b 8a3d b9c7 b5bc 4cca efb9 7590 a3bc
000002a0: f58c ad3c 2634 70bd d505 a5bc 3db6 9c3d
000002b0: a1c9 ea3d 9f4b 1cbd 0405 a93d 2a18 813d
000002c0: 8c33 623d d2f1 f2bd 4728 a1bc 8ba0 59bd
000002d0: f986 81bd 038d 043e 0c3c d6bb f082 d3bc
000002e0: 309d cc3c 62e4 3c3d 9db8 16be 2fbd 0cbd
000002f0: 56ca 913d 4790 94bd 8daf 613d 4b9f 103e
00000300: f5b2 563d 90b1 e1bd bcfa 86bc 16ca c43d
00000310: 6424 99bb 6f8e fbbc fb13 bc3d 23de d83c
00000320: 1492 babd be81 c8bb 5828 fabd 9b0b 76bd
00000330: 1142 293d dcd5 13bd 5140 aebd 931c 8f3d
00000340: 4f0e ca3c fa6a 4b3d 7e5a febd e4e2 00bc
00000350: 57c3 883d 53db b3bd b5ed 8ebd 0032 d13c
00000360: 0fdc 043e 4fb3 f5bc 8b85 f23b fda8 b5bb
00000370: 8d70 cebd 1f3b 4f3d 5a9a 12bd e822 603c
00000380: 56ea 5cbd abfb 3a3c f708 363d 7026 823d
00000390: ffcd 073e c7f0 70bd 0195 65bd 3be7 413d
000003a0: c215 04be ca06 ab3d afc0 223e 8d5e f53b
000003b0: 04db 1fbd 460b 1cbd f80f bcbd c5a7 8f3d
000003c0: b7de b03d 19b0 823c e9cb bdbd 82ac 95bd
000003d0: b00c c2bd cce2 753d 8426 07be 943b 04be
000003e0: a7b2 0b3e 980e 293d fc97 e13d e0ea 773c
000003f0: aaf1 a93b 3843 e4bd 57c8 f53d f14d b6bd
0.115416296 -0.13846141 -0.101138346 -0.075167365 0.1234362 -0.015309058 0.05917555 -0.10946152
-0.07584461 0.0917492 -0.018506933 -0.10427947 0.019991621 -0.046448205 -0.10700144 0.015191349
-0.036026724 0.10589363 0.08557549 0.0086999005 0.053452045 0.045004234 -0.08389485 -0.122445
0.054341897 -0.037005424 -0.026382804 0.05119606 -0.06423721 -0.019694695 0.042542953 0.10020708
-0.06950691 0.05209505 0.12889434 -0.057375543 0.033738617 -0.09053397 0.02386218 -0.015317162
-0.1142794 -0.04477884 0.015233718 -0.027481114 -0.037923254 -0.02774466 0.014152615 0.017484197
-0.10789598 0.03843496 0.051940933 0.1312188 0.07508281 -0.077964075 0.030829338 -0.07181469
-0.057447433 0.001319616 0.11584379 -0.076138236 -0.01609869 -0.057236195 0.05210549 -0.11865035
0.13612556 0.052398577 -0.101328395 -0.09051321 -0.08779559 0.063648686 -0.11969196 0.13166171
-0.022480283 0.14138605 0.09983908 0.03831604 -0.018732153 -0.09541266 -0.08378597 0.029509434
-0.00968539 0.12720266 0.0105792675 0.07246104 -0.011220592 -0.0057539656 0.10056828 -0.12543708
0.011424391 -0.04891211 -0.09198159 0.05748322 0.053253878 0.012088797 0.0835571 -0.10595331
-0.09818704 0.0027841346 0.13491909 0.060243506 -0.088552214 -0.11328738 0.040188782 0.10041414
-0.012528656 -0.07510084 0.055726647 0.13727555 0.11486152 0.009537002 0.027362717 0.121242195
-0.0634813 0.035317834 0.040504556 -0.038143743 -0.05951582 0.068140596 -0.0702843 -0.113391064
0.05571801 0.08765185 0.11173911 0.1123114 0.05689075 0.009933381 -0.090376355 -0.10493054
0.11837089 0.022870025 -0.036464702 -0.13557054 0.06776488 -0.03385084 -0.11419575 0.07356655
-0.12876964 -0.13563076 0.0024095052 -0.060785964 -0.07885557 0.14777967 0.13301863 -0.074514404
-0.06326004 0.12677236 -0.116041616 -0.071551464 0.039439928 0.121142596 0.10832091 0.069142476
0.059140578 0.122800246 -0.060059723 -0.093706615 0.116021976 -0.042460646 0.039626498 -0.09919124
-0.022049913 -0.023693198 -0.120593615 0.0077834344 0.06764912 -0.022189962 -0.00045736355 -0.019966343
0.021185378 -0.058643483 -0.020144382 0.07651947 0.11464239 -0.038158055 0.0825291 0.06303437
0.05522494 -0.1186253 -0.019672526 -0.05313162 -0.06324572 0.12944417 -0.00653792 -0.025819272
0.024977297 0.04611624 -0.14718862 -0.034360107 0.07118671 -0.07254081 0.05509906 0.14123265
0.05241676 -0.110201955 -0.016476981 0.09608857 -0.0046735276 -0.030707566 0.091834985 0.02647311
-0.091098934 -0.006118982 -0.12214726 -0.06006966 0.04132277 -0.036092624 -0.08508361 0.06987872
0.024665026 0.049662568 -0.12419604 -0.007866595 0.06677883 -0.08782067 -0.06978933 0.025536537
0.1297457 -0.029992728 0.0074011735 -0.0055438266 -0.10080061 0.05059349 -0.035791732 0.013680197
-0.053934418 0.011412541 0.044442143 0.063549876 0.13262175 -0.058823373 -0.056050304 0.04733966
-0.12898925 0.08350904 0.15893815 0.007488078 -0.03902723 -0.03809669 -0.09182733 0.070144214
0.086362295 0.01595311 -0.092674084 -0.07308294 -0.09475076 0.060030743 -0.13198286 -0.12913352
0.13642369 0.041273683 0.11015317 0.015131682 0.0051862793 -0.111456335 0.120011024 -0.08901585

2.bias f4 [50]
00000000: 21a7 ffbc 76ef d9bd e421 4cbd 8f84 0c3e
00000010: c790 e0bb 5bf4 0d3e 4475 813d 542b b1bd
00000020: 9446 94bd e09a 59bd 38c6 c0bd 96a7 97bd
00000030: abbf bbbd f7ef 97bc 05fa be3d 2674 b1bc
00000040: 527f b83d c180 f9bd 47a5 2a3d e05e d53d
00000050: 5078 81bd 6bda 06bc 66d7 cc3d 4838 1f3e
00000060: 68db 39bd 8e4a c23d 405e 933d ea1d 9f3d
00000070: 0461 b3bd b9b4 053e 49f2 9b3d a94d e0bd
00000080: a80f 133e d7ac 63bc 3e26 a8bc 1e3f e13d
00000090: 32e4 12bd 2909 053e bc61 f8bd 8d0a 733d
000000a0: c0c6 f0bc 2cc3 e23d e2d9 013e 8b30 27bc
000000b0: 621a 5fbd ea11 833d 1d01 dbbd 8b24 ffbc
000000c0: aad1 92bb c3fa 033e
-0.031207623 -0.10641377 -0.049837008 0.13722442 -0.0068531963 0.13862745 0.06321195 -0.08650842
-0.07240024 -0.053126216 -0.09412807 -0.07405011 -0.09167417 -0.018547041 0.09325031 -0.02166183
0.090086594 -0.12182761 0.041661527 0.104184866 -0.06321776 -0.008230786 0.100020215 0.15548813
-0.045375258 0.094868764 0.07195711 0.077693775 -0.08758739 0.13057221 0.076145716 -0.109523125
0.14361441 -0.013896189 -0.020526048 0.10998367 -0.035862155 0.12991776 -0.12128016 0.059336234
-0.029391646 0.11072382 0.12680772 -0.010204445 -0.05446852 0.06399901 -0.10693572 -0.031145355
-0.0044805603 0.12888627

4.weight f4 [3, 50]
00000000: 9a64 c7bd d131 bebd 96a0 1dbe adbd 30bd
00000010: 9acb 413d f042 d43c dba2 06be 5ea5 2fbd
00000020: 502b a53c dd95 36bc 089a 05be 7853 d03c
00000030: aab3 6e3d 0ab8 fdbd 9e9d e13d 5628 dbbd
00000040: eb37 4cbc 3d40 02be 1c95 1dbc 25af 203e
00000050: 4ec4 f4bd 08a1 243d 73dd 07be bf8a 47bc
00000060: 10d5 403d a0f6 1abd f0eb 02be 1f06 5dbd
00000070: 9637 bdbd 40de b13d 0488 333d 9fbd 07bd
00000080: bf91 223e 0d8d 26bd c05d 16be 96bb f23b
00000090: af59 f63d 2a3c bcbd 3ad6 793d 5902 acbd
000000a0: bf68 c4bd 2163 fcbd 0038 5a3b 0de5 fc3d
000000b0: 1ecd 1c3d 88d7 d1bd 49b0 44bc a1c8 0cbe
000000c0: 6e93 43bd cd4c b5ba 1c30 333d 7c3b 123d
000000d0: 84bc 74bd ae79 af3d e10f 58bd d1eb 8b3d
000000e0: 2c2c a53d 5a55 05bc 099e 14be 3922 9a3d
000000f0: aaa2 40bd be82 1e3e 66b7 a7bd d90e 58bd
00000100: 6ccf dcbd d86d 02be c7e4 413d 9379 973c
00000110: 2053 8fbd 5b21 6cbd e144 873c c5bb 53bd
00000120: d34b 113e ea23 883d 5788 23be 9482 193e
00000130: 875a 4bbd c156 ac3d e1bf 7abd 0f63 e1bd
00000140: 476c b8bd c5ce 283d a413 e0bc 424c b3bd
00000150: 7b23 15bd 33e4 e7bd aff6 0b3e 6a20 123e
00000160: 6d84 cf3d c86b 263e ef3a 4f3d 56bb 1d3e
00000170: 8d63 bb3d 057b b3bd b2db 833d cfd1 e13d
00000180: 657c b5bd 7be0 423b 82e5 d83d a117 84bd
00000190: 342f 1cbd c289 e7bd 5536 9ebd 8bb2 0bbd
000001a0: dca5 0abc 181b e93d 8624 cebd 1e99 a23d
000001b0: f296 943d 84db ca3d f335 0ebe 8bb4 00be
000001c0: b3fc 2f3d a4b7 933d e74f a8bd e44d 923d
000001d0: d62c a6bd 9b0c ce3d 2d71 dabd 2416 27bc
000001e0: bae9 a5bd 825e e2bd 3c39 0abe 1a12 24be
000001f0: 905a f33c 7967 d9bd aac3 e13d ba6c 97bc
00000200: be07 753d c05b d9bd 6678 373d 51c2 0d3e
00000210: 809d 713d c5e0 f83d 9efc c6ba 3ebb cabd
00000220: 2f0c 13bc 9cb7 a6bd 03c2 c63d 4097 8a3d
00000230: 0ee8 9cbd bd26 4fbd 07ac ffbd 039d 4bbd
00000240: 9873 8038 2f40 02be e60b 003c e079 7bbd
00000250: 1673 163e 182a 093e
-0.09735985 -0.092868455 -0.1539329 -0.04314964 0.04731331 0.025910825 -0.13148062 -0.042882316
0.020162255 -0.011144129 -0.1304704 0.025430426 0.05827681 -0.12388618 0.11016391 -0.10701053
-0.012464504 -0.12719817 -0.00961807 0.15691812 -0.11951505 0.040192634 -0.1326807 -0.012179076
0.047078192 -0.037832856 -0.12785316 -0.053960916 -0.09239118 0.08684969 0.043830886 -0.03313982
0.1587591 -0.04066186 -0.146842 0.007407616 0.120288245 -0.09191163 0.060995318 -0.08398885
-0.09590291 -0.12323595 0.0033297539 0.123483755 0.038281552 -0.102461874 -0.01200492 -0.13748409
-0.04774802 -0.0013832093 0.043747053 0.03570126 -0.059750095 0.085681304 -0.05274952 0.06832088
0.08065066 -0.008138025 -0.1451341 0.07526059 -0.04703013 0.15479562 -0.08189277 -0.052748535
-0.1078175 -0.12737215 0.04733732 0.018490588 -0.06998277 -0.057648998 0.016512336 -0.051692743
0.14189081 0.06647475 -0.15969978 0.14991218 -0.04964688 0.084149845 -0.061218146 -0.11005222
-0.09005027 0.041212816 -0.027353115 -0.087547794 -0.03641079 -0.113228224 0.13668321 0.14270177
0.1013268 0.16252053 0.050593313 0.15403494 0.09149847 -0.087636985 0.06438388 0.11026346
-0.08861617 0.0029735852 0.1059065 -0.06449819 -0.038130954 -0.11305572 -0.07725207 -0.03410582
-0.0084623955 0.11382121 -0.1006556 0.07939361 0.07255353 0.099051505 -0.13887767 -0.12568872
0.042965602 0.07212761 -0.08218365 0.07143763 -0.081140205 0.10060998 -0.10666118 -0.01019815
-0.081012204 -0.11053182 -0.13498396 -0.1602253 0.02970627 -0.10615439 0.11023648 -0.018484462
0.059821837 -0.10613203 0.044792555 0.13843657 0.058988094 0.121522464 -0.0015181487 -0.09898995
-0.008975073 -0.081404895 0.097049735 0.0676713 -0.076614484 -0.050574053 -0.124839835 -0.049710285
6.125047e-05 -0.12719797 0.007815337 -0.061395526 0.1469234 0.13394964

4.bias f4 [3]
00000000: 02ff 8ebc e013 a7bd 8916 e43d
-0.017455582 -0.08158088 0.11137111
