prod_model/classifier_weights.bin (torch, 76086 bytes, 6 tensors)

0.weight f4 [50, 312]
-0.04728236 0.03513455 0.018352147 -0.019437939 0.016931564 0.035944216 -0.035204384 -0.051036753
0.03484797 -0.013734409 0.0010103052 -0.018736718 0.023379847 0.029279822 -0.025195856 0.01585155
-0.045403417 0.020185098 0.021815712 0.0031055491 -0.0074832686 0.035885893 -0.037455924 -0.040948804
0.003963673 0.041129734 0.0067410823 -0.001388813 -0.053165607 0.029433683 0.022727957 0.00431618
0.044496056 0.0063824244 -0.05981485 0.056053214 0.020289421 0.007623815 -0.040205188 -0.031472545
0.051759947 -0.038660616 -0.046846665 0.034537625 0.03603125 -0.03277991 -0.014597433 -0.0077794725
-0.018686706 -0.05766192 -0.008190412 0.008321755 -0.048783872 -0.03433864 0.0023279544 -0.032562528
-0.0251327 -0.021858789 -0.0008141075 -0.05095845 0.043273345 0.024323922 -0.05013173 0.040166683
-0.044120584 -0.054802984 -0.03656537 0.03537708 -0.033778086 -0.055415362 -0.021354128 0.007083083
0.023359213 0.04013934 0.036020547 0.00534367 -0.010398267 0.05689916 0.029149618 -0.040569603
0.027028603 -0.04690788 0.011202618 0.002419079 -0.010268546 -0.02523802 0.03600096 0.027214855
-0.006388544 -0.019593194 -0.03358023 -0.034269277 0.017263634 -0.018572493 -0.046438664 0.022633528
-0.042164456 0.016953148 -0.01731496 0.035995293 -0.014598224 0.018519063 -0.017455358 0.0033598605
0.045369297 -0.029219462 -0.034083553 -0.0508272 0.030807976 0.016543046 0.012467663 -0.010227718
0.02948917 0.037303075 -0.058411587 -0.04922456 -4.418231e-05 -0.008118325 0.033018906 -0.005755577
-0.018266296 -0.028019695 0.0066530616 -0.04822382 0.040252566 0.030326294 -0.022429436 0.021119004
-0.0038696546 0.04249075 -0.046232514 -0.015717251 0.007863325 -0.043099854 0.008134701 -0.038204495
-0.003266269 0.014497086 -0.050703283 0.01642526 -0.034605183 0.013850605 -0.023621302 0.05403798
-0.010761718 0.020555835 0.00053759874 -0.040090147 -0.031604834 -0.005674236 -0.045916997 0.03004239
-0.023933886 0.02969672 0.027429378 0.019997926 0.044773486 0.009854494 0.043562304 -0.054000244
-0.010435407 0.014697053 -0.01240099 -0.031939987 -0.01489738 0.03996402 0.050077684 0.011536504
0.035408743 -0.027945565 0.009020008 0.03248205 -0.008042519 -0.024038203 -0.04705825 -0.0013750001
-0.005474453 -0.04426681 0.04076469 -0.028121896 0.03316699 -0.050042443 0.016394664 -0.034330726
-0.048941698 -0.020581601 -0.016123554 0.028019233 0.04397332 -0.019547038 -0.00161162 0.0124177495
0.04914979 0.00048279372 -0.051044635 -0.04151341 0.01262295 -0.041459367 -0.0052074227 0.056035306
-0.04551473 0.039796725 -0.037960794 0.0022573175 -0.022386756 0.011174181 -0.028345503 -0.00073522347
0.011252059 -0.032711726 -0.008877727 0.024551751 -0.018327435 0.023136945 0.009963463 -0.004252307
0.051355556 0.03017092 0.029428266 -0.003059204 -0.03625219 -0.0007349384 -0.05208182 0.020916145
0.053296477 -0.008328754 0.01391407 0.01853808 -0.0069961427 0.047941636 -0.020319477 0.0035378947
0.034867954 -0.014886378 0.025097977 0.01844875 -0.0379218 -0.02893438 0.015400244 -0.00014692663
-0.023217244 0.011699469 -0.017553052 0.044969965 0.05177478 0.009048404 -0.027136441 0.010434008
0.04860353 0.022384735 -0.036473762 -0.01743814 0.0074782036 0.0419987 0.052721553 0.009993651
00000000: 26ab 41bd 3fe9 0f3d 3e57 963c 503c 9fbc
00000010: 10b4 8a3c 3e3a 133d 7932 10bd ea0b 51bd
00000020: bfbc 0e3d 4906 61bc 386c 843a bf7d 99bc
00000030: 1887 bf3c 3ddc ef3c 8a67 cebc 1cdb 813c
00000040: eff8 39bd 385b a53c ddb6 b23c 7886 4b3b
00000050: 3536 f5bb 16fd 123d 626b 19bd efb9 27bd
00000060: b3e1 813b a777 283d 4ce4 dc3b d508 b6ba
00000070: 2ec4 59bd e81e f13c fb2f ba3c be6e 8d3b
00000080: 7f41 363d a823 d13b 6b00 75bd 0e98 653d
00000090: 0036 a63c 32d1 f93b 32ae 24bd 5be9 00bd
000000a0: 3d02 543d 985a 1ebd 4ae2 3fbd 5377 0d3d
000000b0: 8195 133d 3a44 06bd 122a 6fbc f2ea febb
000000c0: dd14 99bc e82e 6cbd 1431 06bc f857 083c
000000d0: 99d1 47bd aca6 0cbd 9890 183b 4960 05bd
000000e0: 18e3 cdbc 3411 b3bc d469 55ba cfb9 50bd
000000f0: 643f 313d f642 c73c ee56 4dbd d285 243d
00000100: c9b7 34bd 1879 60bd 92c5 15bd 8fe7 103d
00000110: e45a 0abd 38fb 62bd daee aebc 3519 e83b
00000120: d25b bf3c 2669 243d 488a 133d f419 af3b
00000130: 7e5d 2abc 180f 693d 2ecb ee3c 502c 26bd
00000140: 176b dd3c 7a22 40bd 2f8b 373c 6989 1e3b
00000150: 673d 28bc f7bf cebc be75 133d b0f1 de3c
00000160: fe56 d1bb e881 a0bc 6c8b 09bd f15d 0cbd
00000170: 776c 8d3c 5725 98bc 7836 3ebd f369 b93c
00000180: a3b4 2cbd 54e1 8a3c 1ad8 8dbc cd6f 133d
00000190: 642d 6fbc 4ab5 973c 8afe 8ebc 1b31 5c3b
000001a0: 28d5 393d a75d efbc 329b 0bbd 2f30 50bd
000001b0: 0261 fc3c 4885 873c 2b45 4c3c 2992 27bc
000001c0: 4693 f13c 1ccb 183d fd40 6fbd b19f 49bd
000001d0: 6550 39b8 b902 05bc d53e 073d 4799 bcbb
000001e0: 33a3 95bc 8f89 e5bc ed01 da3b 5786 45bd
000001f0: e0df 243d d96e f83c f0bd b7bc c301 ad3c
00000200: 089a 7dbb c80a 2e3d 4e5e 3dbd 77c1 80bc
00000210: 2dd5 003c 7989 30bd 6947 053c 517c 1cbd
00000220: e70e 56bb 3085 6d3c 3fae 4fbd 448e 863c
00000230: 2abe 0dbd a6ed 623c 7681 c1bc ee56 5d3d
00000240: eb51 30bc b664 a83c a4ed 0c3a 9135 24bd
00000250: 1274 01bd f1ee b9bb 7613 3cbd 751b f63c
00000260: ff10 c4bc 8946 f33c 93b3 e03c b1d2 a33c
00000270: 6764 373d be74 213c 636e 323d 5c2f 5dbd
00000280: 45f9 2abc e8cb 703c 862d 4bbc 81d3 02bd
00000290: 2414 74bc 50b1 233d 421e 4d3d 9b03 3d3c
000002a0: c208 113d 19ee e4bc a8c8 133c e60b 053d
000002b0: c5c4 03bc c4eb c4bc 27c0 40bd 5939 b4ba
000002c0: 0a63 b3bb 1d51 35bd e0f8 263d e45f e6bc
000002d0: 1cda 073d 4ef9 4cbd 1a4e 863c 609e 0cbd
000002e0: 1777 48bd bf9a a8bc 8b15 84bc 9788 e53c
000002f0: 5e1d 343d 1c21 a0bc fe3c d3ba d173 4b3c
00000300: 4a51 493d 7a1f fd39 2e14 51bd f709 2abd
00000310: 7dd0 4e3c 4cd1 29bd 07a3 aabb 4785 653d
00000320: a76d 3abd e401 233d c77c 1bbd 81ef 133b
00000330: 6e64 b7bc e913 373c d434 e8bc 03bc 40ba
00000340: 8e5a 383c bbfc 05bd e373 11bc c120 c93c
00000350: 6b23 96bc b189 bd3c cb3d 233c f056 8bbb
00000360: 345a 523d 0129 f73c 8c13 f13c ed7c 48bb
00000370: 2d7d 14bd e2a8 40ba bf53 55bd 5658 ab3c
00000380: 684d 5a3d 5475 08bc d7f7 633c 2cdd 973c
00000390: e63f e5bb 735e 443d 0875 a6bc 06dc 673b
000003a0: b3d1 0e3d ffe5 73bc 469a cd3c d521 973c
000003b0: e453 1bbd cb07 edbc 4e51 7c3c 5110 1ab9
000003c0: 1732 bebc 21af 3f3c 6bcb 8fbc 6d32 383d
000003d0: cb11 543d c23f 143c 3e4d debc 67f3 2a3c
000003e0: 7f14 473d 3160 b73c 8365 15bd 6eda 8ebc
000003f0: b80b f53b d406 2c3d 8ef2 573d 69bc 233c

0.bias f4 [50]
0.053949967 0.0058500934 0.0090822885 -0.017517725 -0.050109368 0.03537229 -0.017961668 0.045470346
-0.029820636 0.00058937765 0.06829499 0.048433136 -0.035934974 0.05893038 0.0038297612 0.04616488
0.01032056 0.027266504 -0.033550184 0.057202563 -0.046110526 -0.031719744 0.06138319 -0.0061994256
-0.024440832 0.055434357 0.076068856 -0.026500827 0.029160708 -0.035342045 0.012182982 0.029109241
0.039004426 -0.018080963 -0.027166504 -0.020639079 -0.013237328 0.030489655 -0.04988707 -0.052736126
-0.025083128 0.016337536 0.050146446 -0.043828167 -0.046471454 0.051043652 -3.4984652e-05 0.054049153
-0.018979928 0.052306302
00000000: a4fa 5c3d 24b2 bf3b e1cd 143c 5581 8fbc
00000010: 7b3f 4dbd 89e2 103d 5924 93bc 1d3f 3a3d
00000020: 684a f4bc 7780 1a3a 3ede 8b3d d361 463d
00000030: 8d30 13bd fb60 713d bbfc 7a3b 6317 3d3d
00000040: 9117 293c 015e df3c eb6b 09bd 3c4d 6a3d
00000050: 64de 3cbd 90ec 01bd f16c 7b3d 8d24 cbbb
00000060: 2438 c8bc 230f 633d fdc9 9b3d 4318 d9bc
00000070: 70e2 ee3c d2c2 10bd 219b 473c 8176 ee3c
00000080: 1bc3 1f3d 871e 94bc 4a8c debc 4913 a9bc
00000090: 61e1 58bc 71c5 f93c 6256 4cbd d601 58bd
000000a0: 227b cdbc 4cd6 853c 5c66 4d3d 2a85 33bd
000000b0: da58 3ebd 2613 513d 7cbc 12b8 a562 5d3d
000000c0: cb7b 9bbc 223f 563d

2.weight f4 [50, 50]
-0.051744886 0.0047965334 0.045448314 -0.081660174 -0.14326948 0.08031918 0.07134686 -0.097788155
0.02829384 -0.039327435 -0.0721584 0.029503364 0.010503985 0.010008888 -0.11554754 -0.14658889
-0.0363035 0.08069817 -0.10005649 0.103592865 0.07368605 0.020402847 -0.11560872 0.041188236
-0.049000528 0.03186447 0.00086493767 -0.11552219 0.07056316 0.11325892 0.007052855 -0.09079821
-0.095583804 -0.13726325 0.05072117 -0.03247139 0.10121803 0.061913207 0.15609165 0.1755874
0.014039612 0.11357945 -0.10096676 0.095426425 -0.016152387 -0.050171517 0.13886374 0.117242195
-0.09099468 -0.07832708 -0.133136 -0.1178525 0.03592984 0.054346595 0.05611011 -0.13370003
-0.13699539 -0.08176278 -0.10300036 -0.12248254 -0.08957355 -0.009373671 0.056231204 -0.028849313
-0.00841268 0.0017312287 -0.12311769 0.10875047 -0.10575923 0.07893681 0.052051876 0.12299828
-0.11939947 0.007974962 -0.13622162 0.07958741 0.041144498 -0.10479192 -0.07805283 0.08176838
0.03272417 0.019783163 -0.13506916 -0.11486858 -0.07630379 0.045957718 0.022306513 -0.12028893
0.012038443 0.03248513 0.030738195 0.0802514 -0.12090198 -0.077505894 0.049110767 0.05389088
0.056015536 0.046996582 0.02534121 -0.0730898 -0.0140500255 -0.07859112 -0.04013756 0.00048635202
0.087511614 -0.036707584 0.08544909 -0.064089835 0.13385805 -0.07220373 0.08938078 -0.033479307
-0.0108823655 -0.053901017 0.14407437 0.082550146 -0.095775984 -0.12156466 -0.05459515 0.0531377
0.04412053 -0.06546121 -0.0020925761 -0.14102575 -0.10222591 0.1351619 -0.08497709 -0.012941136
0.009826128 0.11500582 -0.06690951 0.0152409915 0.040438503 0.1405426 -0.06047491 -0.04241835
0.07068371 -0.051497947 -0.10422721 -0.13372938 -0.081297904 0.07636907 0.02912143 -0.021735298
-0.008120597 0.10940702 0.04256037 0.13987717 0.12277345 -0.06710543 0.102848366 0.078307375
0.11783974 -0.11356065 0.039140943 -0.12284903 -0.048500516 -0.10234848 0.05288796 0.081824385
-0.08421788 -0.09651166 -0.009500283 0.07556868 -0.11808148 0.106920995 0.08804408 0.030322194
0.13471542 -0.122791745 -0.12815711 -0.11582987 -0.0887818 -0.091915295 -0.03188712 -0.1236617
-0.092197984 0.04726442 0.13194261 -0.13641098 -0.14309281 -0.08827116 0.04511592 -0.13582702
0.14062299 0.055663113 -0.07973283 -0.035729155 -0.10556414 0.08246075 -0.0025380866 0.04406567
0.09272132 -0.12302104 0.14062609 0.05111432 -0.12651213 0.08043736 -0.09783251 0.03325436
0.10496032 0.06326894 -0.02512893 -0.047467783 0.113477044 -0.036512088 0.07533071 -0.09702908
-0.02129434 -0.10860133 0.0012793494 -0.04621474 -0.09675037 0.091299914 0.018006008 0.09918086
-0.05441169 -0.021629594 -0.052358888 0.12370376 0.10754933 -0.012243914 -0.036345385 -0.1151582
0.075735964 0.111719705 -0.12572718 0.11022618 -0.10823623 0.123362854 -0.05434024 -0.053209662
-0.07963538 0.053277384 -0.07330438 0.023827242 -0.04000459 0.124395125 0.10811091 0.019407652
0.13067032 -0.10391372 -0.11029729 -0.13583833 -0.12893732 -0.026273126 -0.12600836 -0.107833095
-0.036297444 -0.102601275 -0.009911641 -0.083997495 -0.1391586 -0.09697221 -0.006005107 0.0077938107
00000000: 72f2 53bd 3d2c 9d3b 0328 3a3d 733d a7bd
00000010: 3cb5 12be 627e a43d 4d1e 923d 2845 c8bd
00000020: 7cc8 e73c ce15 21bd c9c7 93bd 0ab1 f13c
00000030: e818 2c3c 52fc 233c 30a4 ecbd 661b 16be
00000040: fbb2 14bd 1545 a53d 6bea ccbd 7f28 d43d
00000050: b6e8 963d df23 a73c 44c4 ecbd ffb4 283d
00000060: c7b4 48bd 5284 023d fcbc 623a e696 ecbd
00000070: 6b83 903d 4bf4 e73d a31b e73b 69f4 b9bd
00000080: 71c1 c3bd bd8e 0cbe 00c1 4f3d b800 05bd
00000090: 664b cf3d b498 7d3d 7dd6 1f3e 2fcd 333e
000000a0: 6706 663c 589c e83d a9c7 cebd ee6e c33d
000000b0: 0352 84bc a680 4dbd 4c32 0e3e ad1c f03d
000000c0: 6b5b babd f369 a0bd ce54 08be a75c f1bd
000000d0: 2b2b 133d 899a 5e3d b7d3 653d a9e8 08be
000000e0: 8548 0cbe 3f73 a7bd daf1 d2bd 20d8 fabd
000000f0: 5672 b7bd 0794 19bc b152 663d 6555 ecbc
00000100: 56d5 09bc 65ea e23a 2125 fcbd 91b8 de3d
00000110: 4c98 d8bd 9fa9 a13d 5934 553d 86e6 fb3d
00000120: b687 f4bd 6aa9 023c ae7d 0bbe b9fe a23d
00000130: 2287 283d 259d d6bd 2ada 9fbd 2e76 a73d
00000140: c709 063d 4d10 a23c 924f 0abe 3840 ebbd
00000150: 2945 9cbd 293e 3c3d 26bc b63c 0b5a f6bd
00000160: e43c 453c 210f 053d abce fb3c d95a a43d
00000170: 759b f7bd 69bb 9ebd 5f28 493d afbc 5c3d
00000180: 8c70 653d 7d7f 403d 5f98 cf3c 1bb0 95bd
00000190: 1432 66bc 62f4 a0bd 4867 24bd 10fd fe39
000001a0: 4a39 b33d b15a 16bd efff ae3d 8841 83bd
000001b0: 1612 093e 8ddf 93bd 450d b73d 9921 09bd
000001c0: f34b 32bc 50c7 5cbd 3b88 133e 0d10 a93d
000001d0: 3326 c4bd e4f6 f8bd 2a9f 5fbd eba6 593d
000001e0: bbb7 343d 8710 86bd 9a23 09bb 0e69 10be
000001f0: d15b d1bd e267 0a3e 7808 aebd 0f07 54bc
00000200: c5fd 203c 2c88 eb3d da07 89bd 5ab5 793c
00000210: d8a2 253d 66ea 0f3e 8ab4 77bd ddbe 2dbd
00000220: 9fc2 903d 83ef 52bd 1375 d5bd 5bf0 08be
00000230: 847f a6bd 6367 9c3d 1190 ee3c 390e b2bc
00000240: 410c 05bc ca10 e03d c853 2e3d f63b 0f3e
00000250: a670 fb3d 926e 89bd 2aa2 d23d 9e5f a03d
00000260: f655 f13d 7c92 e8bd 4152 203d 4698 fbbd
00000270: 7aa8 46bd 149c d1bd 0ca1 583d 8b93 a73d
00000280: 6d7a acbd e8a7 c5bd 13a7 1bbc c1c3 9a3d
00000290: b4d4 f1bd 65f9 da3d 7450 b43d 4066 f83c
000002a0: d7f2 093e 3d7a fbbd 9e3b 03be 3638 edbd
000002b0: 3bd3 b5bd 163e bcbd 129c 02bd 5842 fdbd
000002c0: 4cd2 bcbd 5698 413d f71b 073e 52af 0bbe
000002d0: ec86 12be 83c7 b4bd 79cb 383d 3d16 0bbe
000002e0: 79ff 0f3e 01ff 633d f74a a3bd bc58 12bd
000002f0: 0332 d8bd 2fe1 a83d 0756 26bb 347e 343d
00000300: ade4 bd3d 74f2 fbbd 4900 103e 405d 513d
00000310: 658c 01be 58bc a43d 695c c8bd b935 083d
00000320: 70f5 d63d 2593 813d 30db cdbc 946d 42bd
00000330: a766 e83d b38d 15bd fd46 9a3d 2fb7 c6bd
00000340: 7871 aebc 606a debd d8af a73a ab4b 3dbd
00000350: 0f25 c6bd 73fb ba3d 5681 933c 561f cb3d
00000360: cbde 5ebd 8c30 b1bc 4676 56bd 6658 fd3d
00000370: d342 dc3d b39a 48bc e6de 14bd 10d8 ebbd
00000380: 751b 9b3d 4dcd e43d a0be 00be 43be e13d
00000390: f5aa ddbd aaa5 fc3d df93 5ebd 60f2 59bd
000003a0: e017 a3bd 6339 5a3d 9b20 96bd 5931 c33c
000003b0: dadb 23bd dfc2 fe3d 4169 dd3d ccfc 9e3c
000003c0: 71ce 053e b7d0 d4bd 8ce3 e1bd 3419 0bbe
000003d0: 2508 04be bd3a d7bc 5608 01be 99d7 dcbd
000003e0: a1ac 14bd 9e20 d2bd 6f64 22bc e106 acbd
000003f0: 987f 0ebe 5e99 c6bd 7dc6 c4bb 3963 ff3b

2.bias f4 [50]
0.12449954 -0.117104255 -0.011777772 0.020729898 -0.019092128 0.09199069 0.07898383 -0.052732076
-0.014368775 -0.058047965 0.03055057 0.10290961 0.12417161 0.020054432 -0.101881 0.019399958
-0.11114332 0.09816358 -0.007380952 0.010689356 -0.08624714 -0.09339316 0.025192644 0.040425744
0.04851743 0.042688977 0.110843964 0.115427144 0.088520125 0.04137001 -0.037702583 0.1209115
0.027251124 -0.106308594 0.06999019 0.06320992 0.03428693 0.09976531 -0.031318516 0.030703021
-0.10166222 0.023477208 -0.026841896 -0.04112812 0.11879774 0.051768877 -0.08746707 0.080114365
0.11886893 -0.08153222
00000000: 9df9 fe3d 5bd4 efbd 8ef7 40bc bfd1 a93c
00000010: 1867 9cbc 9d65 bc3d 46c2 a13d 97fd 57bd
00000020: 036b 6bbc b4c3 6dbd 3045 fa3c 46c2 d23d
00000030: af4d fe3d 3149 a43c fca6 d0bd a9ec 9e3c
00000040: 1c9f e3bd fd09 c93d eadb f1bb 6922 2f3c
00000050: 57a2 b0bd ea44 bfbd ce60 ce3c 7795 253d
00000060: 36ba 463d a3da 2e3d 2902 e33d 1165 ec3d
00000070: 0a4a b53d 9973 293d 066e 1abd 73a0 f73d
00000080: c03d df3c 52b8 d9bd 0457 8f3d 3474 813d
00000090: 7470 0c3d c151 cc3d d847 00bd e784 fb3c
000000a0: 4834 d0bd 4653 c03c 89e3 dbbc f675 28bd
000000b0: 3b4c f33d 9a0b 543d ef21 b3bd 0013 a43d
000000c0: 8e71 f33d 5dfa a6bd

4.weight f4 [3, 50]
0.15498953 -0.06790909 -0.14539722 -0.07151254 -0.105218224 -0.15439601 -0.05359694 0.1562658
0.06756043 0.06929071 -0.07737411 0.06492582 -0.04763692 -0.1316872 0.06658851 -0.048750862
-0.072236076 0.071564876 0.018913748 0.053403366 0.06495394 -0.0503291 0.08050257 -0.07884358
0.14100082 -0.09253309 -0.15967436 0.007037011 0.08064519 -0.11273369 -0.11551776 0.16698119
0.13094366 -0.06899148 -0.022127185 -0.15336803 0.1596443 0.10772432 0.062340498 0.09088711
-0.114196904 -0.044842996 -0.09947992 -0.14363247 0.12594923 -0.16181426 0.083997585 0.08323709
0.019664727 0.0010275337 0.021537483 0.0901419 -0.045205414 -0.07636286 -0.0698671 0.025474912
0.05242215 0.13796324 -0.028955732 -0.06764519 -0.13776201 0.05475379 0.06462418 0.13513473
-0.031059 -0.15643117 0.11319331 -0.14795263 0.11147364 -0.12083659 -0.012240891 0.0018561629
-0.098824576 0.01349604 0.022905627 -0.07106863 -0.025101352 -0.14853062 0.10868728 0.12755966
-0.060562696 -0.012771247 0.064594924 0.10871496 -0.020946406 -0.08819606 -0.110154636 0.047847345
0.10020179 0.12721695 0.13232265 0.07636148 -0.13918528 0.04802442 -0.046059534 0.14312488
0.12298823 -0.08923087 -0.064553745 0.023574213 0.04817411 0.041558996 0.06115793 0.048950307
-0.010720299 0.15423429 -0.05135294 -0.0440146 -0.015085943 0.15920316 -0.06870157 0.1262257
0.14142098 -0.1312327 -0.08780777 0.039361876 0.02371659 -0.0070651756 -0.14351442 0.09323412
0.013115208 -0.08326501 -0.12525976 0.10473723 0.105540775 0.12544236 0.03407807 -0.11079531
-0.06958713 0.118784234 0.05179725 -0.09150794 -0.13583678 -0.027850216 0.063920714 -0.07701446
0.08205724 0.13881467 0.10138957 0.11599374 0.13385047 -0.056805883 -0.16456535 0.0995343
-0.045775898 0.027188871 -0.049430072 -0.054927643 -0.017264308 -0.15211058
00000000: 93b5 1e3e ec13 8bbd 02e3 14be 2b75 92bd
00000010: a77c d7bd fd19 1ebe 7788 5bbd 2404 203e
00000020: 1f5d 8a3d 4ae8 8d3d 5176 9ebd d4f7 843d
00000030: ee1e 43bd 02d9 06be 8f5f 883d fcae 47bd
00000040: 82f0 93bd 9b90 923d 01f1 9a3c 7dbd 5a3d
00000050: 9206 853d e325 4ebd 88de a43d be78 a1bd
00000060: 8562 103e fd81 bdbd ad81 23be ba96 e63b
00000070: 4e29 a53d ece0 e6bd 9394 ecbd 1efd 2a3e
00000080: 1816 063e 684b 8dbd 1244 b5bc 820c 1dbe
00000090: cc79 233e 919e dc3d c058 7f3d 0523 ba3d
000000a0: 11e0 e9bd 4aad 37bd 21bc cbbd 6414 13be
000000b0: d6f8 003e a3b2 25be ed06 ac3d 3578 aa3d
000000c0: ec17 a13c 4fae 863a 606f b03c 519c b83d
000000d0: 5029 39bd 2264 9cbd 7b16 8fbd c3b0 d03c
000000e0: 9cb8 563d 3c46 0d3e 9234 edbc 9089 8abd
000000f0: 7c11 0dbe 8345 603d af59 843d c260 0a3e
00000100: 726f febc 7e2f 20be e5d1 e73d e580 17be
00000110: 4b4c e43d 2d79 f7bd 058e 48bc 7e4a f33a
00000120: 8a64 cabd 7f1e 5d3c 95a4 bb3c 6e8c 91bd
00000130: 5aa1 cdbc 6918 18be 7097 de3d 009f 023e
00000140: 9710 78bd 7e3e 51bc 584a 843d f3a5 de3d
00000150: cc97 abbc 23a0 b4bd c198 e1bd 94fb 433d
00000160: 9936 cd3d 2945 023e 977f 073e 6863 9c3d
00000170: 9686 0ebe 41b5 443d eca8 3cbd 548f 123e
00000180: 41e1 fb3d adbe b6bd c134 84bd b51e c13c
00000190: 3752 453d c439 2a3d bd80 7a3d 1e80 483d
000001a0: 31a4 2fbc 98ef 1d3e 7657 52bd a748 34bd
000001b0: 082b 77bc 2706 233e 69b3 8cbd 4f41 013e
000001c0: a9d0 103e dd61 06be 8fd4 b3bd eb39 213d
000001d0: 4b49 c23c fd82 e7bb 72f5 12be 88f1 be3d
000001e0: 2be1 563c d886 aabd 1844 00be 7980 d63d
000001f0: c325 d83d f673 003e 7295 0b3d a7e8 e2bd
00000200: b283 8ebd 2645 f33d 5a29 543d 8468 bbbd
00000210: cc18 0bbe 2326 e4bc dde8 823d c2b9 9dbd
00000220: a00d a83d 6f25 0e3e 56a5 cf3d 208e ed3d
00000230: 1910 093e 49ad 68bd d283 28be a4d8 cb3d
00000240: 827f 3bbd 32bb de3c 3077 4abd cffb 60bd
00000250: e16d 8dbc e0c2 1bbe

4.bias f4 [3]
0.122873716 0.10067775 -0.024478305
00000000: 37a5 fb3d 2330 ce3d ba86 c8bc
